student_model.pth (torch, 164612 bytes, 6 tensors)

layers.0.weight f4 [64, 3, 3, 3]
0	0x3d38307d	0.044968117
1	0xbe039993	-0.12851553
2	0x3e16b4e2	0.14717439
3	0xbe375ec1	-0.1790724
4	0x3dd2f970	0.10301483
5	0xbdf16e1e	-0.11788581
6	0x3dc12827	0.094314866
7	0xbe35814b	-0.17725103
8	0xbd809d2d	-0.06279979
9	0x3d91d84a	0.07121332
10	0xbd93d93c	-0.072191685
11	0x3cc87dc9	0.024474042
12	0xbe2a42b0	-0.16627002
13	0x3e2a8460	0.1665206
14	0xbe1d0f7a	-0.15337935
15	0x3cb2a37b	0.02180647
16	0xbe3c71f8	-0.1840285
17	0xbcf4bff7	-0.029876692
18	0x3de749c1	0.11293364
19	0xbdc3ca37	-0.09560054
20	0xbdc76a01	-0.097370155
21	0xbe1ec324	-0.15504128
22	0x3d1ff990	0.03905636
23	0xbdb43ba5	-0.08800439
24	0x3e0f055a	0.13966885
25	0xbd84fc92	-0.064934865
26	0xbdfc78d5	-0.123277344
27	0xbe180356	-0.14845023
28	0xbdbafeeb	-0.09130653
29	0xbc1a9068	-0.009433843
30	0xbe276cfe	-0.16350171
31	0x3e2cab89	0.1686231
32	0x3dfcaac6	0.1233726
33	0x3dbf99e2	0.09355523
34	0x3dffeccd	0.12496338
35	0xbca5576a	-0.020183284
36	0xbd9bead0	-0.07613146
37	0x3e2b97c3	0.16757111
38	0x3d8b14fe	0.06791113
39	0x3d8e51d6	0.06949203
40	0x3d099957	0.033593502
41	0x3e0b5356	0.13606009
42	0xbd4e038e	-0.05029636
43	0xbd21071d	-0.039313424
44	0x3d182930	0.037148654
45	0xbd45310a	-0.04814247
46	0xbe15a7cd	-0.14614792
47	0xbd63ae79	-0.055586312
48	0x3dda87ac	0.106704086
49	0x3e006de9	0.12541927
50	0xbe334f86	-0.17510805
51	0x3c918a7b	0.017766228
52	0x3d9c4dfe	0.07632063
53	0x3d3659b0	0.044519126
54	0xbe17cd38	-0.14824378
55	0xbc6ee321	-0.014580519
56	0xbb4f476b	-0.0031628262
57	0x3def19fe	0.116748795
58	0xbe353d85	-0.17699249
59	0x3e2bcb2c	0.16776723
60	0xbd48f964	-0.049065962
61	0x3e3701a1	0.17871715
62	0x3db07cee	0.086175784
63	0x3e31cc78	0.17363155
64	0x3beda7cd	0.0072526694
65	0x3dee2464	0.11628035
66	0xbd9e5ed3	-0.0773293
67	0x3c37fe61	0.011230082
68	0xbe410388	-0.18849003
69	0x3dfebd67	0.124384694
70	0xbd414f67	-0.047194865
71	0xbdff5fde	-0.12469457
72	0xbe076d3a	-0.1322526
73	0x3ddac168	0.106814206
74	0x3e3c3536	0.18379673
75	0x3e07dfbe	0.13268945
76	0x3d47267c	0.048620686
77	0x3db296a3	0.08720138
78	0x3dcb9336	0.09940188
79	0x3c3b3593	0.011426347
80	0xbe24a8fa	-0.16080084
81	0xbdde9f2d	-0.10870204
82	0x3dad4539	0.08460469
83	0x3d568751	0.05237514
84	0xbe417fb2	-0.18896368
85	0x3dd9ae10	0.10628903
86	0xbdc1ce96	-0.09463231
87	0xbc94e340	-0.018174767
88	0xbc24b6f3	-0.010053384
89	0xbe2fbdad	-0.171622
90	0xbcceb3a3	-0.025232142
91	0xbc8971d7	-0.016777916
92	0xbe08c0ae	-0.13354751
93	0x3c7e7572	0.015530931
94	0x3d9defe5	0.07711772
95	0x3db8a2ed	0.090154506
96	0x3d78300a	0.06059269
97	0x3d686462	0.056736358
98	0x3e0a0ca3	0.13481383
99	0xbd77908f	-0.060440596
100	0xbc362677	-0.011117569
101	0x3e243c61	0.16038658
102	0x3e317f6e	0.17333767
103	0xba98038a	-0.0011597734
104	0x3dcf365b	0.10117789
105	0x3cdaf61c	0.026728682
106	0x3caef365	0.021356294
107	0xbd150cca	-0.03638915
108	0x3e0db7d3	0.13839655
109	0xbd64e1a4	-0.05587925
110	0x3e08733b	0.13325207
111	0x3d84e93d	0.06489799
112	0xbd294be7	-0.04133215
113	0x3d81da17	0.063404255
114	0x3deaa140	0.11456537
115	0x3d59bbe5	0.053157706
116	0xbcad1a8b	-0.02113082
117	0xbd656e74	-0.05601354
118	0xbd919ab6	-0.07109587
119	0xbcdd96f7	-0.027049525
120	0x3e17c60d	0.14821644
121	0xbc8f6405	-0.017503748
122	0x3c1ad431	0.009450004
123	0x3dde42f4	0.10852614
124	0xbd085721	-0.033286218
125	0x3e260c7a	0.16215697
126	0x3d49becf	0.049254235
127	0x3e3b45e6	0.18288383
128	0x3daceb7d	0.08443353
129	0xbd05d1db	-0.032670837
130	0x3e2ad4f0	0.16682792
131	0x3de0b852	0.10972656
132	0xbda29c29	-0.079399414
133	0xbd343d5b	-0.044003826
134	0x3dcf38a8	0.10118228
135	0xbd66537e	-0.056231968
136	0xbc90a9c6	-0.01765908
137	0x3d9313f8	0.07181543
138	0x3e0abd6e	0.13548824
139	0xbe2be69c	-0.16787189
140	0xbd8c231a	-0.068426326
141	0xbe1c6bad	-0.1527545
142	0x3deadcfa	0.11467929
143	0x3d1ccd9f	0.038282033
144	0xbe3c6b07	-0.18400203
145	0xbcaf9b61	-0.021436395
146	0xbd9f7431	-0.077858336
147	0xbc528cbe	-0.012850938
148	0x3cfd46c2	0.030917529
149	0x3d3e0607	0.046392467
150	0xbe038314	-0.12842971
151	0x3d92a5a8	0.07160503
152	0xbb223685	-0.0024751734
153	0x3db8d1ff	0.090244286
154	0x3e0da46f	0.13832258
155	0x3d9c1a1d	0.07622168
156	0x3d28513f	0.041093107
157	0x3d819083	0.063263915
158	0x3deb9a2d	0.11504016
159	0x3de0724c	0.109593004
160	0x3d6a7b74	0.05724664
161	0x3e26bab0	0.16282153
162	0x3d9cc93d	0.07655571
163	0x3d00a784	0.031409755
164	0x3e1346cf	0.1438248
165	0x3e06af9e	0.1315293
166	0x3da98b19	0.08278484
167	0x3a0f4f0e	0.0005466797
168	0xbd5685fb	-0.052373867
169	0xbc2694b5	-0.01016729
170	0x3dd7f28a	0.105443075
171	0x3d7b7907	0.061394718
172	0x3de98878	0.114029825
173	0xbd6bf2a1	-0.057604436
174	0xbe027773	-0.12740879
175	0x3db737f9	0.08946223
176	0xbdaff134	-0.08590928
177	0xbdcfb8ff	-0.10142707
178	0xbe26b2d5	-0.16279157
179	0x3d3ea0c0	0.046540022
180	0xbe2f0cf5	-0.17094786
181	0xbdd56949	-0.10420472
182	0xbdab6b02	-0.083700195
183	0x3db1dbe7	0.08684521
184	0xbddaf47f	-0.10691165
185	0xbd5d0b51	-0.05396587
186	0xbe071b99	-0.13194121
187	0x3c7dba06	0.015486246
188	0x3d59ef61	0.053206805
189	0x3e0a550d	0.13509007
190	0xbd9da38a	-0.07697208
191	0xbdaa756f	-0.0832318
192	0xbe475c27	-0.19468747
193	0x3e0a7d47	0.13524352
194	0xbd5d9dac	-0.054105446
195	0x3da38ae1	0.079854734
196	0xbd25dd4a	-0.04049424
197	0xbc1eb6c3	-0.0096871285
198	0xbe27224d	-0.16321678
199	0x3e1cca9a	0.15311661
200	0xbcbfa217	-0.02339272
201	0x3e1d43c4	0.15357882
202	0x3d46ff8f	0.048583563
203	0x3ccf2728	0.025287226
204	0xbdd4d974	-0.103930384
205	0xbe117e9d	-0.14208455
206	0xbe24adfe	-0.16081998
207	0x3d0cd1e4	0.034379855
208	0x3d225284	0.039629474
209	0x3d87a4d3	0.066232346
210	0x3d903043	0.07040455
211	0x3e014560	0.1262412
212	0x3c47250f	0.012154832
213	0x3e38e33d	0.18055435
214	0xbd82ce4e	-0.06387006
215	0xbdf68ad0	-0.12038195
216	0x3e20c39e	0.15699622
217	0x3d2e58d8	0.042565197
218	0x3e3503a9	0.17677177
219	0x3d742b67	0.059611704
220	0x3cb6b317	0.022302194
221	0x3de30053	0.11084046
222	0xbe029ade	-0.1275439
223	0x3e0144c9	0.12623896
224	0x3dee4712	0.11634649
225	0xbe277c01	-0.16355897
226	0xbdb4ed63	-0.088343404
227	0xbab6d110	-0.0013947804
228	0x3df72fb3	0.12069645
229	0x3dcf0cda	0.10109873
230	0xbce17e79	-0.027526127
231	0xbe217ba7	-0.15769826
232	0xbdbf563a	-0.09342618
233	0xbe2905dc	-0.16506141
234	0x3e30c53a	0.17262736
235	0xbe2fea81	-0.171793
236	0xbda74c88	-0.08168894
237	0xbdad7a92	-0.08470644
238	0x3e1bf2ce	0.15229341
239	0xbe336189	-0.17517675
240	0x3d532c48	0.0515559
241	0x3e1d20fc	0.15344614
242	0xbe1a8b20	-0.15092134
243	0x3d300d94	0.0429817
244	0xbe1bf4b6	-0.15230069
245	0xbb24c0bd	-0.0025139295
246	0xbe06edf1	-0.13176705
247	0xbe002ad1	-0.12516333
248	0xbdde1873	-0.10844507
249	0x3e0ca20c	0.13733691
250	0xbdc1aa6a	-0.09456332
251	0x3d45ff14	0.048338965
252	0x3e2683d7	0.1626123
253	0xbd8942d4	-0.067021996
254	0xbc884069	-0.016632276
255	0xbc649738	-0.013952069

layers.0.bias f4 [64]
0	0x3e2d753d	0.16939254
1	0x3cfa26a8	0.03053601
2	0xbd11d3c8	-0.03560236
3	0xbd8fcd4b	-0.070215784
4	0xbd01203a	-0.031524874
5	0xbe4a137f	-0.19734
6	0x3e1e7067	0.15472566
7	0x3e2129b6	0.15738568
8	0xbe3ba6a6	-0.1832529
9	0x3dda5df9	0.10662455
10	0xbd5a0ffc	-0.0532379
11	0x3ded04e0	0.115731955
12	0xbe1cdb0d	-0.15317936
13	0xbe354b23	-0.17704444
14	0xbdaa28fb	-0.08308598
15	0x3d16b0d3	0.036789726
16	0x3e3f73ff	0.18696593
17	0xbe372064	-0.1788345
18	0xbccd3f1e	-0.02505451
19	0xbd05f518	-0.032704443
20	0x3c870481	0.01648164
21	0xbe17ff69	-0.14843525
22	0x3e06ac48	0.13151658
23	0x3cf7b07f	0.030235527
24	0x3c10f0d5	0.008846481
25	0x3d2fbecf	0.04290658
26	0xbde49e51	-0.11163009
27	0xbd799ec2	-0.06094242
28	0x3e42bd79	0.1901759
29	0xbdc2b5f9	-0.09507365
30	0xbd7cdb68	-0.06173268
31	0x3df42335	0.11920778
32	0x3e13c6d4	0.14431316
33	0x3e2fbbfc	0.17161554
34	0xbdd5b3b4	-0.10434666
35	0x3deffc4a	0.11718042
36	0x3dd3cdcf	0.10341989
37	0xbe43a27d	-0.19104953
38	0x3dacd5ce	0.084392175
39	0xbd908772	-0.07057084
40	0x3e06a6fe	0.1314964
41	0xbe2a5358	-0.16633356
42	0xbd8ec269	-0.069706745
43	0x3d30b565	0.04314174
44	0x3e244cf2	0.16044977
45	0x3e2a5be0	0.1663661
46	0xbe129dbc	-0.14317983
47	0x3bd58ebc	0.0065172594
48	0xbe13e684	-0.14443403
49	0x3c72bfad	0.014816207
50	0xbe13ff82	-0.14452937
51	0xbdf7f2b2	-0.12106837
52	0x3e2078a7	0.15671025
53	0x3c9c3ba4	0.019071408
54	0x3e36ecec	0.17863816
55	0x3d3f53db	0.04671083
56	0xbdad75a5	-0.084697045
57	0xbdbcb02b	-0.09213289
58	0xbd19766c	-0.03746645
59	0x3cb7520d	0.022377992
60	0xbc4b08cd	-0.012392235
61	0xbe315a4f	-0.17319606
62	0xbdd0ddd6	-0.10198562
63	0xbe205f37	-0.15661322

layers.2.weight f4 [64, 64, 3, 3]
0	0xbd1fec23	-0.039043557
1	0xbd13a550	-0.036046326
2	0xbbe31df0	-0.006931059
3	0x3d0142fd	0.031558026
4	0xbc9a9918	-0.018871829
5	0xbc8afb96	-0.016965669
6	0x3cf915a9	0.030405836
7	0xbca30652	-0.019900475
8	0x3d035d90	0.03207165
9	0x3ca0478a	0.019565362
10	0x3d2b5160	0.041825652
11	0xbb4fc038	-0.0031700265
12	0xbca8c4af	-0.020601599
13	0xbc00fc58	-0.007872663
14	0xbce715f6	-0.028208714
15	0xbd1de07e	-0.03854417
16	0xbd0130bf	-0.03154063
17	0xba1b46f6	-0.0005923355
18	0xbb5d79cf	-0.0033794527
19	0xbb4bd9e7	-0.0031105222
20	0x3d1b48ba	0.037911154
21	0xbd1fb249	-0.038988385
22	0xbc6b4c12	-0.014361398
23	0x3d068e19	0.03285036
24	0xbcb5ba19	-0.022183465
25	0xbcbc37da	-0.02297585
26	0xbb33b044	-0.0027418295
27	0xbcfd7a22	-0.030942027
28	0xbcdd34fc	-0.027002804
29	0x3cff61c1	0.031174542
30	0xbcdd99ab	-0.027050814
31	0xba0fb5f5	-0.0005482131
32	0x3b2095da	0.002450338
33	0x3cf4dffa	0.029891957
34	0xbd057d33	-0.032590102
35	0xbcbaa0b8	-0.022781715
36	0xbca5f6ef	-0.020259349
37	0x3cf0ca1b	0.029393246
38	0x3d16d021	0.03681958
39	0xbcbd9688	-0.023143068
40	0xbc65099f	-0.013979345
41	0x3d065e37	0.032804694
42	0x3b2ace5f	0.0026062948
43	0x3c857b40	0.016294122
44	0xbcc8d22e	-0.024514284
45	0xbd209fc4	-0.039214864
46	0x3cd640d0	0.026153952
47	0xbc6a57e9	-0.014303186
48	0x3c2830cf	0.010265543
49	0x3c95e272	0.018296454
50	0xbca1b11f	-0.019737778
51	0x3c85d80e	0.016338374
52	0x3d0a6881	0.03379107
53	0x3c945550	0.018107086
54	0xbc0dd21b	-0.00865605
55	0xbb97d3ff	-0.004633426
56	0xbc08e0a0	-0.008354336
57	0xbc5efcc6	-0.013610071
58	0xbd1fce8d	-0.03901534
59	0xbcbc6792	-0.022998605
60	0x3d16ec42	0.036846407
61	0x3cd39bae	0.02583107
62	0x3d235216	0.039873205
63	0x3d0e3760	0.03472078
64	0xbc3b1ae8	-0.011419989
65	0x3cc8e732	0.024524305
66	0xbca0c004	-0.01962281
67	0x3b96b4d4	0.004599193
68	0x3ccd275d	0.025043184
69	0x3d107567	0.035268214
70	0x3b9e7f3c	0.004836945
71	0xbbf763cd	-0.007549739
72	0x3caa851c	0.020815425
73	0xbc9b7de7	-0.018980933
74	0xbc82cbfc	-0.015966408
75	0x3d1d33a0	0.03837931
76	0xbc87c33d	-0.016572589
77	0xbccf9da1	-0.025343718
78	0x3cb2c533	0.021822548
79	0xbd1e7fe9	-0.038696203
80	0xbcf60100	-0.030029774
81	0x3c7270ab	0.01479737
82	0xbd32d391	-0.043658797
83	0x3cf0804f	0.029358057
84	0x3c6881c8	0.0141910985
85	0x3bfcc937	0.0077144164
86	0x3ad01969	0.0015876713
87	0xbd0eea43	-0.034891378
88	0xbca3c0db	-0.019989422
89	0xbc263151	-0.010143594
90	0x3d1850c6	0.037186407
91	0x3cb557e4	0.022136636
92	0x3bba61eb	0.0056879423
93	0x3c3bddb4	0.011466432
94	0xbb7fed4c	-0.0039051352
95	0xbd2583de	-0.04040896
96	0xbca3c882	-0.01999307
97	0x3c858e6c	0.016303264
98	0xbbb7f359	-0.005613726
99	0xbc0aa574	-0.008462299
100	0xbd18d254	-0.03730996
101	0xbcfb7c0a	-0.030698795
102	0x3cc4dbb5	0.024030546
103	0xbba61994	-0.005068967
104	0x3c370db4	0.011172701
105	0xbacb863e	-0.0015527678
106	0xbcb4c295	-0.02206544
107	0x3beaa5bd	0.007160871
108	0xbcc94699	-0.024569796
109	0x3cfefdfe	0.031126972
110	0xbce0f799	-0.027461814
111	0xbc329939	-0.010900789
112	0xbbf6a416	-0.007526885
113	0xbcaa13af	-0.020761339
114	0xbc877e2d	-0.016539657
115	0x3ba186a4	0.0049293805
116	0xbb78e46f	-0.0037977954
117	0xbd27abe7	-0.040935423
118	0x3c94623e	0.018113252
119	0x3cf51fa3	0.029922312
120	0x3d1f534a	0.03889779
121	0x3c0a363b	0.008435781
122	0xbcf747e0	-0.03018564
123	0x3cadb843	0.021206027
124	0x3cb3b76b	0.021938046
125	0x3ca9e6a6	0.020739865
126	0x3c393b53	0.011305648
127	0xbc9ae0e5	-0.018906066
128	0xbca99c12	-0.020704303
129	0x3d1060fc	0.03524874
130	0x3ca0590a	0.019573707
131	0xbc93cd52	-0.01804224
132	0xbc976621	-0.018481316
133	0x3cf71f95	0.030166427
134	0x3d10356d	0.0352072
135	0x3c0426d9	0.008065903
136	0x3c808aa1	0.015691103
137	0xbbfb31c6	-0.0076658456
138	0x3d47b42e	0.048755817
139	0xbc7a079d	-0.015260604
140	0xbd1a3bfc	-0.03765486
141	0x3ced6069	0.028976636
142	0x3c37af3f	0.0112112155
143	0xbcdf1d6d	-0.027235711
144	0xbd1f312f	-0.038865265
145	0xbc2b4113	-0.010452527
146	0x3c7db0f0	0.01548408
147	0x3d286d03	0.041119587
148	0xbd1c0b71	-0.03809685
149	0xbc790f38	-0.015201382
150	0xbd2a954f	-0.041646298
151	0xbd17f5a9	-0.037099514
152	0x3d00bd9a	0.03143082
153	0x3d0dd100	0.034623146
154	0x3cb7c806	0.022434246
155	0xbcb860e6	-0.022507142
156	0x3bc62b80	0.006047666
157	0x3d061fe2	0.03274525
158	0xbd010ea3	-0.0315081
159	0x3bba522b	0.0056860647
160	0xbd25b75c	-0.04045807
161	0x3d0b1f66	0.03396549
162	0xbc157c66	-0.009123897
163	0x3be8182b	0.007082959
164	0x3c7e1d6b	0.0155099435
165	0xbcde1c15	-0.027113
166	0xbc6ed2ac	-0.014576595
167	0xbd0c2b01	-0.0342207
168	0x3b36696f	0.002783384
169	0xbcb3b2eb	-0.0219359
170	0xbc9d0c31	-0.019170852
171	0xbca6658f	-0.020312099
172	0xbc07f3a2	-0.008297833
173	0xbc47efe5	-0.012203191
174	0x3cf9ca15	0.030491868
175	0xbb0c51e4	-0.0021411115
176	0x3bff0299	0.007782292
177	0x3c7db5f9	0.01548528
178	0x3b58ebf0	0.0033099614
179	0x3b75168e	0.0037397477
180	0xbc043062	-0.008068176
181	0x3d202ffc	0.03910826
182	0x3cb2f39a	0.021844674
183	0xbc1563bc	-0.009118017
184	0xbcb5ea83	-0.02220655
185	0x3b030f45	0.0019998115
186	0xba056bd0	-0.00050896127
187	0x3c31c7f5	0.010850896
188	0x3d15584a	0.036461152
189	0xbaf194ab	-0.0018431147
190	0xbcbf2c53	-0.023336565
191	0xbca16c53	-0.019704973
192	0xbc812976	-0.01576684
193	0x3c78b7e6	0.015180564
194	0xbce22570	-0.027605742
195	0xbd09c36c	-0.033633634
196	0xbd079c7c	-0.03310822
197	0xbbd4e4eb	-0.0064970157
198	0x3c9d2947	0.019184722
199	0xbc9b9a37	-0.018994434
200	0xbd14c586	-0.036321186
201	0xbce7c8fc	-0.028294079
202	0x3cd46d1d	0.025930936
203	0x3b45ff7b	0.0030212093
204	0xbb04228f	-0.00201622
205	0x3b559e2e	0.0032595503
206	0xbbaf3c9c	-0.0053478014
207	0xbd070670	-0.032965124
208	0xbc654411	-0.013993279
209	0x3be030a0	0.006841734
210	0x3ce154fc	0.027506344
211	0x3c2498b1	0.01004617
212	0xbbc3aed9	-0.005971771
213	0x3c36ac0c	0.011149418
214	0x3b94cefa	0.004541275
215	0x3caf749a	0.021417905
216	0x3ce19c87	0.027540458
217	0x3ced08ca	0.028934855
218	0xb95abc48	-0.0002086024
219	0x3ca393ec	0.019967996
220	0x3c96d88b	0.018413803
221	0xbcf8656e	-0.030321803
222	0x3c6855a6	0.014180576
223	0xbd0b557c	-0.03401707
224	0xbc9ebe9f	-0.019378005
225	0x3d11840c	0.03552632
226	0xbc8db805	-0.017299661
227	0x3c63be6e	0.013900382
228	0xbc994962	-0.01871175
229	0x3c1e5830	0.00966458
230	0xbd1e4261	-0.038637523
231	0x3cd5df50	0.02610746
232	0x3befd784	0.0073193926
233	0x3c99c970	0.01877281
234	0x3c756b57	0.014979205
235	0xbc8ff4e3	-0.017572826
236	0x3d13d104	0.036088005
237	0x3cd7b8fd	0.026333326
238	0x3d075472	0.033039518
239	0xbce5881e	-0.028019007
240	0xbd1e8a36	-0.038706027
241	0xbc37aeff	-0.011211156
242	0xbd15d30b	-0.03657822
243	0x3bba83c2	0.0056919763
244	0xbc56d4c7	-0.0131122535
245	0xbd0ab70e	-0.03386598
246	0xbc8ff11c	-0.017571025
247	0xbd1520e5	-0.036408324
248	0xbbeee169	-0.0072900546
249	0xbb07214e	-0.0020619216
250	0xbc8fbcc1	-0.01754606
251	0x3ca439b3	0.020047044
252	0xbd095504	-0.033528343
253	0x3b477d0f	0.003043953
254	0xbd01e29d	-0.031710256
255	0xbcd3fc1d	-0.025877053

layers.2.bias f4 [64]
0	0x3cdae2be	0.026719447
1	0x3c7f5222	0.015583547
2	0xbcdf722b	-0.02727612
3	0xbbbc8137	-0.0057527083
4	0x3ca064f3	0.019579386
5	0xbca553e4	-0.020181604
6	0xbc04bfd7	-0.008102379
7	0xbc980d2c	-0.018560968
8	0x3d16e28d	0.03683715
9	0xbc1cbef4	-0.009567011
10	0xbd30a856	-0.043129288
11	0x3cc6a094	0.024246491
12	0xbcb8da26	-0.022564959
13	0x3d1ff16f	0.03904861
14	0x3bbdd982	0.005793751
15	0xbd05aeb9	-0.03263733
16	0x3ca91f66	0.020644855
17	0x3caffb3b	0.0214821
18	0xbd0402cd	-0.032229234
19	0x3cfdec3c	0.030996434
20	0x3c263b4e	0.010145975
21	0x3b9df0db	0.004819972
22	0xba9b6d85	-0.0011858201
23	0x3d03a1c1	0.032136682
24	0xbcc25856	-0.023723762
25	0x3ce41a2e	0.027844515
26	0x3d157238	0.03648588
27	0xbccf553c	-0.025309198
28	0xbca53904	-0.020168789
29	0xbd1572de	-0.0364865
30	0x3d278e3a	0.040907122
31	0x3cf5ff23	0.030028885
32	0x3cadcea4	0.021216698
33	0xbc856666	-0.016284179
34	0x3cc684d1	0.024233254
35	0xbc8306f5	-0.015994528
36	0xbd25be24	-0.040464535
37	0x3cc9fd1c	0.024656825
38	0x3cda9bdd	0.02668565
39	0xbceab5bf	-0.028651116
40	0xbc90f36e	-0.017694201
41	0xbd003ca6	-0.03130784
42	0xb9bc5a0c	-0.00035925244
43	0x3a3e004a	0.0007247968
44	0x3d15b59b	0.036550146
45	0xbcc28264	-0.023743816
46	0xbd2eb858	-0.042656273
47	0x3c8a30a4	0.016868897
48	0x3c9de13a	0.019272435
49	0xbd077aa4	-0.033075944
50	0x3cf11608	0.02942945
51	0x3c8987ec	0.016788445
52	0xbd39a2f6	-0.045321427
53	0x3cfe7a5c	0.031064205
54	0x3bf560ae	0.0074883318
55	0xbd0fc6fc	-0.035101876
56	0x3ca790c8	0.02045478
57	0xbcf35314	-0.0297027
58	0x3cd3de9e	0.025862988
59	0x3b142d9f	0.00226102
60	0xbcce6472	-0.02519438
61	0xbd0152cc	-0.031573102
62	0x3c29031c	0.010315683
63	0xb8cca559	-9.7582764e-05

layers.4.weight f4 [3, 64, 3, 3]
0	0x3c91e3e3	0.01780886
1	0xbcc6d7d1	-0.024272831
2	0xbcc19f0d	-0.023635412
3	0xbcc2c7ea	-0.023776967
4	0x3b560631	0.00326575
5	0x3c59ce40	0.013293803
6	0x3c869d61	0.016432466
7	0xbd20d44e	-0.03926497
8	0x3b7a5826	0.0038199513
9	0xbc4ce1fc	-0.012505051
10	0xbc01fc0e	-0.00793363
11	0x3d1c64ee	0.03818219
12	0x3d03f974	0.03222032
13	0x3cfb2b92	0.030660424
14	0x3d03d994	0.03218992
15	0x3c0f94d2	0.008763509
16	0xbc78f5d8	-0.0151953325
17	0x3cd8a803	0.026447302
18	0x3c875de0	0.016524255
19	0x3b45a164	0.003015601
20	0xbd2889d6	-0.041147076
21	0xbd0711e1	-0.032976035
22	0xbb2a0d48	-0.0025947858
23	0x3ba435bb	0.005011288
24	0x3cad6eb4	0.021170951
25	0xbce011cb	-0.027352234
26	0xbd05a8db	-0.032631736
27	0xbd1e1cc8	-0.038601667
28	0x3c06f073	0.0082360385
29	0xbd1fb9a2	-0.038995393
30	0xbaf248a5	-0.0018484785
31	0x3d20e3f9	0.03927991
32	0x3d15fd5a	0.036618568
33	0x3d0954f9	0.033528302
34	0xbcbf2760	-0.023334205
35	0xbc594c19	-0.013262772
36	0x3c590eee	0.013248188
37	0x3c825cfc	0.015913479
38	0x3d214231	0.039369766
39	0x3d19c125	0.037537713
40	0x3d0be171	0.034150545
41	0x3cb9a9e5	0.02266402
42	0xbd125370	-0.035724103
43	0xbcd04e82	-0.02542806
44	0xbcdc4eb0	-0.02689299
45	0xbd10fcba	-0.03539727
46	0xbcce00c4	-0.02514685
47	0xbc91a6a4	-0.017779656
48	0xbcb67cd1	-0.022276314
49	0x3cbf9dbb	0.023390641
50	0xbc9c1516	-0.019053023
51	0x3cf89b28	0.030347422
52	0xbd11bb95	-0.035579283
53	0x3b5152fd	0.0031940334
54	0xbd377581	-0.044789795
55	0xbd135663	-0.035971057
56	0x3c57260f	0.0131316325
57	0xbd08b03a	-0.033371188
58	0x3cf7f759	0.030269312
59	0xbb12edbf	-0.002241954
60	0x3c29f03d	0.010372219
61	0x3cba4adb	0.022740772
62	0xbc9e3537	-0.019312484
63	0xbb7bbd7b	-0.00384125
64	0xbce3eaf1	-0.02782199
65	0x3ccadc30	0.024763197
66	0x3cdd9757	0.027049704
67	0x3b17c370	0.0023157261
68	0x3c701aa3	0.014654788
69	0x3ca7056c	0.020388328
70	0x3ab99e59	0.0014161571
71	0xbb81be40	-0.003959447
72	0x3c1b6923	0.009485516
73	0xbccbf1cb	-0.02489557
74	0xbcc02796	-0.023456376
75	0x3cc31d93	0.023817813
76	0x3c4e2ac7	0.012583441
77	0x3cd07204	0.025444992
78	0x3cf88eaf	0.030341474
79	0xbc5962be	-0.013268171
80	0xbcc3e40b	-0.02391245
81	0x3cc849f3	0.024449324
82	0xbcc22b36	-0.023702245
83	0xbc654240	-0.013992846
84	0x3bbb3b7e	0.005713879
85	0xbc96b44c	-0.01839652
86	0xbbb778df	-0.0055991258
87	0x3bf5244d	0.007481134
88	0xbc50b172	-0.012737619
89	0xbd04789c	-0.032341585
90	0x3d06d19b	0.03291474
91	0xbccb0f67	-0.024787618
92	0xbc3b0ab0	-0.011416122
93	0x3cab7ebf	0.02093446
94	0x3a41288b	0.0007368407
95	0xbc82a25c	-0.01594656
96	0xbbbdd549	-0.005793248
97	0x3cb8bd98	0.022551343
98	0x3c22e19f	0.009941488
99	0x3b53c4ae	0.0032313275
100	0x3ad31720	0.0016104914
101	0xbcf5534f	-0.029946951
102	0x3c115f44	0.008872811
103	0xbc300a3b	-0.010744627
104	0x3c470a8d	0.012148512
105	0x3ca50107	0.020142091
106	0xbd0077cc	-0.031364247
107	0xbd10900d	-0.035293628
108	0x3cdd018e	0.02697828
109	0x3c1c1fd4	0.009529073
110	0xbc23a041	-0.009986938
111	0xbd10555d	-0.03523766
112	0x3c50a40e	0.012734426
113	0xbc33e0a9	-0.010978856
114	0xbbd719b4	-0.0065643433
115	0x3c798e28	0.015231647
116	0xbd075e7f	-0.033049103
117	0xbd0c7715	-0.034293253
118	0x3c07ea4f	0.00829561
119	0xbd2e7ed2	-0.042601414
120	0xbd24b8c8	-0.040215284
121	0xbcc64ebb	-0.024207463
122	0xbd2e6cf6	-0.042584382
123	0x3c65c704	0.0140245
124	0x3d04a12e	0.032380275
125	0xbd310e80	-0.04322672
126	0xbcd71d16	-0.026258986
127	0x3c590791	0.013246433
128	0x3cf7f87a	0.03026985
129	0x3b1e8afd	0.002419173
130	0xbcfe48de	-0.031040605
131	0xbc63e9f3	-0.013910758
132	0xbcb31dcb	-0.021864792
133	0x3ce28e71	0.027655812
134	0x3c00e15e	0.007866232
135	0xbcb96a34	-0.02263365
136	0x3cf152f4	0.0294585
137	0x3cca67eb	0.024707755
138	0xbc31392b	-0.010816853
139	0xbc846f7b	-0.01616644
140	0xbd3ffdb8	-0.046872824
141	0x3d05d6a6	0.032675408
142	0xbd27d921	-0.040978555
143	0xbbb81575	-0.0056177923
144	0xbced8507	-0.028994096
145	0xbc6e942f	-0.014561697
146	0x3bfef2e7	0.007780421
147	0x3c3b46c7	0.011430449
148	0xbc3ac087	-0.011398441
149	0xbc8acda9	-0.01694377
150	0xbc300b4c	-0.010744881
151	0x3b35b177	0.0027724185
152	0xbcc90f1d	-0.02454334
153	0xbcb538a4	-0.022121735
154	0x3c43a58b	0.011941324
155	0x3ce0c662	0.027438346
156	0x3d0046c8	0.031317502
157	0xbcf982fe	-0.03045797
158	0xbbf1a6fe	-0.0073746433
159	0x3c4da022	0.012550386
160	0x3c8ff1e1	0.017571392
161	0xbc0ba69f	-0.008523612
162	0x3b8c2d97	0.0042778957
163	0x3ca89bd5	0.020582119
164	0xbcd3e2b0	-0.025864929
165	0xbb6e5683	-0.0036367483
166	0xbcc513c0	-0.02405727
167	0xbca0c699	-0.019625949
168	0xbca2cbca	-0.019872565
169	0xbc655d0d	-0.013999236
170	0x3ced8710	0.028995067
171	0x3baee64e	0.005337513
172	0xba9cc9a8	-0.0011961954
173	0x3d0f043f	0.03491616
174	0x3ca4ea30	0.0201312
175	0x3c8671aa	0.016411621
176	0xbd0ef1db	-0.03489862
177	0x3c95a052	0.018264923
178	0xbc256305	-0.010094409
179	0x3c767aa7	0.015043891
180	0xbc827eed	-0.015929664
181	0xbb2e1c31	-0.0026567096
182	0x3d165df3	0.03671069
183	0x3ca0a304	0.019608982
184	0xbd0234e7	-0.031788733
185	0xbc1091fb	-0.008823867
186	0x3c8c52e8	0.017129377
187	0x3d076aad	0.03306072
188	0xbcf52208	-0.029923454
189	0x3ccd230a	0.025041122
190	0x3cf015bb	0.029307237
191	0x3bf4d92b	0.0074721775
192	0xbd244d0e	-0.040112548
193	0x397f25a8	0.00024332723
194	0xbcef5efe	-0.0292201
195	0xbd38ce3e	-0.045118563
196	0xbcb44da8	-0.022009686
197	0xbc9beb6d	-0.019033158
198	0xbd0234c1	-0.03178859
199	0xbc547c86	-0.012969142
200	0x3c94932d	0.018136585
201	0xbd22f257	-0.039781895
202	0xbd2286fe	-0.03967952
203	0x39c53b9b	0.00037619178
204	0xbce2c453	-0.027681505
205	0xbc23882e	-0.009981198
206	0xbccdffae	-0.025146332
207	0xbcc84a9c	-0.024449639
208	0xbc969180	-0.018379927
209	0x3c88949e	0.016672429
210	0xbcc26d6d	-0.023733819
211	0x3c79c55d	0.015244809
212	0x3c4a19b8	0.012335233
213	0x3d2b4cbb	0.041821223
214	0xbc8e04f7	-0.017336352
215	0x3c81ef3f	0.015861152
216	0xbd0761aa	-0.033052124
217	0xbd100f99	-0.035171125
218	0xbc511036	-0.012760213
219	0xbc878e75	-0.016547421
220	0x3d13761b	0.036001306
221	0x3cef949b	0.029245665
222	0x3cd0e3fb	0.025499335
223	0x3bc3bead	0.005973658
224	0xbc36ae0f	-0.011149897
225	0x3b525e88	0.0032099802
226	0xbd122974	-0.035684064
227	0x3d2722c7	0.04080465
228	0x3c054564	0.00813422
229	0xbc85eb93	-0.016347682
230	0xbc3ca73c	-0.011514481
231	0x3c58dccf	0.013236239
232	0xbc66bddc	-0.014083352
233	0x3d04d448	0.03242901
234	0x3cdd26d3	0.026996052
235	0xbce73a35	-0.028225997
236	0xbcedba51	-0.029019507
237	0x3c8bed14	0.017080821
238	0x3d0f099c	0.034921274
239	0x3cf7ca3a	0.030247796
240	0x3cc7a9fb	0.024373045
241	0x3d14dcc8	0.036343366
242	0xbd2a2577	-0.041539636
243	0xbcd4be5b	-0.025969675
244	0xba5c42ac	-0.0008402269
245	0x3d0e02bd	0.03467058
246	0xbbe7ab46	-0.007069978
247	0x3caa7f5a	0.02081268
248	0x3cd2aa3a	0.025715936
249	0xbd1ae2fc	-0.037814125
250	0x3bd2090b	0.0064097694
251	0xbcfad076	-0.03061698
252	0x3d046046	0.032318376
253	0x3bf2996e	0.007403544
254	0xbd03a728	-0.032141834
255	0x3d10a07a	0.035309292

layers.4.bias f4 [3]
0	0xbb3feec1	-0.0029286596
1	0x3d13d276	0.036089383
2	0xbd05c6e5	-0.032660384
